conv_digitos.pth (torch_old, 22959 bytes, 6 tensors)

conv1.weight f4 [10, 1, 5, 5]
0.46454167 0.18936989 0.107484095 -0.060374405 -0.2043105 0.49324107 0.3056159 0.18106757
-0.047478564 -0.13778695 0.26225042 0.33707058 0.07646928 -0.298795 -0.4679781 0.3368304
0.06590936 0.16714932 0.17785569 0.08455287 0.3734225 0.013749641 0.007547076 -0.23931177
-0.2725533 0.028514951 0.3235164 0.31997216 -0.038114067 -0.034889843 0.3279755 0.06387324
0.42681086 0.08512114 -0.28982896 0.30239707 -0.28658715 0.4015954 0.1519154 -0.08208982
0.021264793 0.37095678 0.2617687 0.358957 -0.107514024 -0.06173905 0.027009126 0.49195546
0.40370134 0.0050883004 -0.2878112 -0.04086009 -0.33975813 -0.19758065 0.107118286 0.19507112
0.16375138 0.20834894 0.54363614 0.29783556 -0.047676712 0.23965311 0.49867442 0.47633448
0.5807744 -0.082323484 0.122184366 0.4310956 -0.12862498 0.52080923 0.062172364 0.09340644
-0.03971813 -0.253745 0.3992709 0.08886871 -0.13431416 0.28944114 0.44364518 0.4061005
-0.40194553 -0.16323142 -0.27761784 0.17375247 0.26200014 -0.11628738 -0.30879658 -0.40562117
0.45320952 0.16592366 -0.16405801 0.04412089 -0.03751478 0.43214262 0.22271028 -0.34760097
0.107204415 0.33518904 0.36477295 -0.33228138 -0.019805899 -0.112360835 0.24444383 -0.014454218
-0.31645727 0.2655655 0.09345687 0.31443188 -0.27065468 -0.14896736 0.09252448 0.22886759
0.36950022 0.11158363 0.06996544 0.017797127 0.20889038 0.73011744 0.6856955 0.40788704
-0.2568066 -0.19563106 0.5619 0.043121375 0.05045575 0.2208531 -0.18733118 -0.2776658
-0.096841924 -0.12900019 -0.122181006 -0.12978694 0.16951533 -0.23421542 -0.36674502 0.29921207
0.29276234 -0.21614431 -0.33113578 -0.042499132 0.08675875 -0.24357134 -0.21042974 -0.0031344541
-0.14834587 -0.02193189 -0.24467659 -0.109960996 -0.1554012 0.23108666 0.034862127 0.07646364
0.00091497175 0.06254881 0.20931078 -0.30012387 0.466822 0.41840878 0.6338604 0.53502715
0.38320896 0.25725478 0.35772088 0.1418615 0.025606105 0.3233748 -0.07316681 0.065335184
-0.17805685 -0.074012086 0.15156929 -0.0216482 -0.32066584 0.03299312 -0.16155253 0.05850741
0.009966975 -0.34581158 0.38883677 0.12643164 0.14371729 -0.039909765 0.07355424 0.3783696
0.10871643 -0.40167212 -0.16238761 -0.102589056 0.38029426 -0.44610867 -0.419667 -0.38343143
0.024816295 0.4705902 -0.1455151 0.07684999 -0.021672739 0.20391187 0.3270844 -0.32629928
0.34577984 -0.08855728 -0.09209234 0.060876217 0.13002184 0.08554147 -0.1883045 0.07796467
0.4202479 0.29507202 0.24973468 0.2711831 0.32477888 -0.1657774 -0.42986128 0.36316252
0.33086646 -0.21193981 -0.23508264 -0.19970378 0.2898045 0.2678208 0.0105484715 -0.050811585
0.114385255 -0.3050801 -0.30950743 -0.059399016 0.019147133 0.30798635 -0.30432934 -0.29585055
0.17179027 -0.007980887 0.67339295 0.017579218 0.21349859 0.07310428 0.21711624 0.64452165
-0.08213323 -0.005072989 -0.24507962 -0.056071524 0.50156945 -0.041601196 -0.15316364 -0.13269706
0.42465696 0.58488786
00000000: 68d8 ed3e 2eea 413e 9f20 dc3d 274b 77bd
00000010: c636 51be 188a fc3e b079 9c3e c769 393e
00000020: e278 42bd 0618 0dbe b045 863e 8494 ac3e
00000030: ed9b 9c3d a9fb 98be d39a efbe 0975 ac3e
00000040: 7dfb 863d 3129 2b3e cd1f 363e 0e2a ad3d
00000050: 3c31 bf3e 2d46 613c 764d f73b 250e 75be
00000060: 1b8c 8bbe 3098 e93c f1a3 a53e 64d3 a33e
00000070: 7f1d 1cbd a7e8 0ebd 68ec a73e f9cf 823d
00000080: f486 da3e fe53 ae3d 7664 94be cad3 9a3e
00000090: 8dbb 92be ea9d cd3e b68f 1b3e b51e a8bd
000000a0: 8133 ae3c 0cee bd3e 8c06 863e 36c9 b73e
000000b0: 5030 dcbd 16e2 7cbd 3e42 dd3c 96e1 fb3e
000000c0: f1b1 ce3e c2bb a63b fd5b 93be e95c 27bd
000000d0: c7f4 adbe 9552 4abe d560 db3d b9c0 473e
000000e0: 71ae 273e 6d59 553e bd2b 0b3f e77d 983e
000000f0: a848 43bd a067 753e 4152 ff3e 1de2 f33e
00000100: a2ad 143f 3799 a8bd cc3b fa3d 90b8 dc3e
00000110: 44b6 03be c153 053f 73a8 7e3d e04b bf3d
00000120: 7aaf 22bd ddea 81be 3c6d cc3e cc00 b63d
00000130: a789 09be a131 943e 7625 e33e 68ec cf3e
00000140: cecb cdbe 2326 27be ed23 8ebe 2bec 313e
00000150: e224 863e 1428 eebd 961a 9ebe 94ad cfbe
00000160: 140b e83e e4e7 293e d3fe 27be 1bb8 343d
00000170: 19a9 19bd cc41 dd3e 2a0e 643e c1f8 b1be
00000180: fd8d db3d e69d ab3e 85c3 ba3e c920 aabe
00000190: fb3f a2bc 701d e6bd 7c4f 7a3e 62d1 6cbc
000001a0: b006 a2be 34f8 873e 5166 bf3d 37fd a03e
000001b0: 4093 8abe e68a 18be 797d bd3d 445c 6a3e
000001c0: 222f bd3e f585 e43d 0a4a 8f3d 48cb 913c
000001d0: 5ce7 553e fae8 3a3f be89 2f3f 92d6 d03e
000001e0: 287c 83be 8253 48be aed8 0f3f 0aa0 303d
000001f0: b0aa 4e3d 5127 623e bfd3 3fbe 362a 8ebe
00000200: 0f55 c6bd a018 04be 093a fabd dee6 04be
00000210: 6d95 2d3e 2bd6 6fbe 01c6 bbbe 5332 993e
00000220: f2e4 953e ef54 5dbe a18a a9be 9213 2ebd
00000230: 92ae b13d c46a 79be e57a 57be 6a6b 4dbb
00000240: fbe7 17be 82aa b3bc 808c 7abe 3b33 e1bd
00000250: 7e21 1fbe fba1 6c3e 97cb 0e3d f898 9c3d
00000260: b7da 6f3a 9719 803d 9155 563e d6a9 99be
00000270: 4b03 ef3e ad39 d63e ad44 223f 8af7 083f
00000280: f733 c43e e6b6 833e 3127 b73e 2444 113e
00000290: e5c3 d13c 6291 a53e 7bd8 95bd 74ce 853d
000002a0: 8954 36be a693 97bd fb34 1b3e 9157 b1bc
000002b0: 502e a4be cb23 073d 076e 25be 77a5 6f3d
000002c0: 864c 233c 370e b1be 9d15 c73e 4c77 013e
000002d0: a02a 133e 6c78 23bd 9ba3 963d a9b9 c13e
000002e0: b8a6 de3d f8a7 cdbe f048 26be 361a d2bd
000002f0: eeb5 c23e 5b68 e4be 98de d6be 2051 c4be
00000300: 8b4b cb3c 33f1 f03e e901 15be 8763 9d3d
00000310: 078b b1bc 46ce 503e 9b77 a73e b310 a7be
00000320: 0e0a b13e 855d b5bd e99a bcbd 5759 793d
00000330: 7224 053e 5e30 af3d e5d2 40be f1ab 9f3d
00000340: bc2a d73e ae13 973e 73ba 7f3e 83d8 8a3e
00000350: 6b49 a63e 8dc1 29be c716 dcbe 70f0 b93e
00000360: 5467 a93e c006 59be 81b9 70be 267f 4cbe
00000370: 4161 943e cf1f 893e 7fd3 2c3c cf1f 50bd
00000380: d142 ea3d 7533 9cbe c277 9ebe 624c 73bd
00000390: 73da 9c3c 63b0 9d3e 0ed1 9bbe b979 97be
000003a0: cae9 2f3e 44c2 02bc 7b63 2c3f 4b02 903c
000003b0: 609f 5a3e b2b7 953d b853 5e3e 5fff 243f
000003c0: 7835 a8bd 513b a6bb 27f6 7abe 41ab 65bd
000003d0: db66 003f 0466 2abd eed6 1cbe bde1 07be
000003e0: a36c d93e 36bb 153f

conv1.bias f4 [10]
0.15353924 0.015195516 0.010303579 0.15778977 0.002709656 0.48348197 0.04647469 0.19035085
0.05710054 0.03864332
00000000: 6439 1d3e 9df6 783c 58d0 283c a493 213e
00000010: 7c94 313b f38a f73e 3f5c 3e3d 55eb 423e
00000020: 41e2 693d 7548 1e3d

conv2.weight f4 [20, 10, 5, 5]
-0.009618516 -0.056984454 0.059585474 0.014757563 0.03380846 -0.04416461 -0.04701063 0.0064559323
0.00401649 -0.04234861 0.06357462 0.0638182 -0.009263632 -0.046460755 -0.044277795 0.026076635
-0.013945499 -0.026125465 0.0425539 -0.057110086 -0.04006406 -0.042533327 -0.016010812 0.027685564
0.024288746 0.018628115 0.034818433 0.002310047 0.009247964 -0.0060761534 -0.045230255 -0.060351465
0.052593753 -0.047036026 0.04078602 -0.04433446 0.013011704 -0.057805546 -0.01605542 -0.039294373
-0.026595695 0.015326264 0.030128714 0.007900677 -0.058166068 -0.009565867 0.0035981208 0.029914256
0.05092468 0.025548104 -0.012544217 -0.010508921 0.0076870355 -0.050453566 0.025663765 -0.03259088
-0.037821066 -0.06892235 -0.07316537 0.01836453 0.02627403 0.030459326 -0.008590293 0.009561196
0.017067507 -0.018746495 -0.049701143 0.045405034 -0.023310287 -0.028561145 0.024862405 -0.045762867
-0.03087674 -0.040287867 0.05282666 0.019375285 0.047962755 0.04525351 -0.060970113 0.027660668
0.024595479 0.026606157 -0.032451626 -0.039443836 -0.02344798 -0.022858314 -0.041242357 0.014184016
-0.009716199 0.010160841 -0.04774273 0.014226039 0.017866958 -0.04152331 0.00029093263 0.0057842126
0.04622135 0.05138411 -0.03542598 0.010479022 0.0042949645 -0.049883272 0.04286608 -0.039945144
0.009813116 -0.063159704 -0.028162293 -0.002115958 0.004964964 -0.034754705 0.060103536 0.016795037
-0.019500256 -0.03421959 0.050340544 -0.0021261424 -0.03775111 -0.03502771 0.005816683 -0.007702072
0.042949323 -0.016091056 0.04581928 0.0422685 -0.013547351 -0.016986866 -0.015811287 -0.0306568
-0.017497934 0.014830116 -0.0067255297 -0.023609566 0.015363437 -0.055631798 0.04751207 -0.06507399
0.03854667 0.017777162 -0.04970377 0.032647137 -0.016058471 -0.04984767 -0.05611203 0.037030578
-0.01790173 -0.008501798 0.05507719 -0.008811642 0.0058217705 0.043806594 0.006562778 -0.06524869
0.007148278 -0.0103832325 0.03374966 0.032533914 -0.050747294 0.012462997 -0.014613585 0.0061097103
-0.029323854 0.05977281 -0.07265083 -0.028716894 -0.03035341 -0.03976383 0.0017765822 -0.040737186
-0.056418166 0.021718452 0.046762116 0.055929862 0.03600124 -0.039207872 0.027706783 0.03643564
0.03958892 0.0009004136 -0.051828474 -0.053102557 -0.06110745 -0.015682261 0.026680458 -0.02207521
-0.00824625 0.044995036 -0.019744115 -0.03731909 0.027669912 -0.049206 -0.046276383 -0.06393324
0.052475464 -0.039580476 0.006562295 0.05251631 0.05476346 -0.01091301 -0.049200557 0.021598445
0.03745928 -0.04678511 -0.027293013 -0.05636387 0.024602737 0.014064361 0.0054677986 -0.005134287
-0.053129256 -0.06881378 -0.053525675 0.0008242075 0.032263372 -0.012506367 -0.0020158528 -0.038265273
0.014775212 0.046121802 0.021762552 0.011629322 -0.0422897 0.028567448 0.017158702 -0.0010897045
-0.03707651 -0.041598357 -0.023830889 -0.067339666 0.030456027 0.03529227 0.0462893 -0.01601175
-0.067751385 -0.058708966 0.012582805 0.0036383944 -0.0033548973 0.04475489 0.06598264 0.00046421948
-0.03888508 -0.00572208 -0.013108294 -0.0538293 -0.024657432 -0.00810624 0.052376866 0.028412817
0.033105105 -0.0060133403 0.08901466 0.12858672 -0.23903437 -0.02965826 -0.023549922 0.06297026
00000000: fb96 1dbc 8868 69bd e60f 743d b5c9 713c
00000010: bd7a 0a3d f3e5 34bd 388e 40bd 498c d33b
00000020: c39c 833b bc75 2dbd 6933 823d 1eb3 823d
00000030: 7dc6 17bc a24d 3ebd a25c 35bd ab9e d53c
00000040: aa7b 64bc 1205 d6bc 004d 2e3d 44ec 69bd
00000050: 361a 24bd 6d37 2ebd 1b29 83bc d6cc e23c
00000060: 31f9 c63c fd99 983c c69d 0e3d 2864 173b
00000070: c684 173c 781a c7bb 5c43 39bd 1933 77bd
00000080: 8c6c 573d d9a8 40bd 3e0f 273d 0d98 35bd
00000090: 0b2f 553c 82c5 6cbd a886 83bc 23f3 20bd
000000a0: 37df d9bc 031b 7b3c 7ed0 f63c d771 013c
000000b0: 8b3f 6ebd 27ba 1cbc 73ce 6b3b be0e f53c
000000c0: 6696 503d 424a d13c 4286 4dbc 9c2d 2cbc
000000d0: 87e3 fb3b 66a8 4ebd d13c d23c 047e 05bd
000000e0: 43ea 1abd 2927 8dbd bad7 95bd 3671 963c
000000f0: a23c d73c d685 f93c 4dbe 0cbc 90a6 1c3c
00000100: 28d1 8b3c 4092 99bc 6d93 4bbd a1fa 393d
00000110: 37f5 bebc 10f9 e9bc 3eac cb3c d871 3bbd
00000120: 38f1 fcbc e404 25bd c560 583d ebb8 9e3c
00000130: 9874 443d bf5b 393d ccbb 79bd a098 e23c
00000140: 757c c93c 28f5 d93c ffeb 04bd dc8f 21bd
00000150: fa15 c0bc 5c41 bbbc bfed 28bd 1364 683c
00000160: b130 1fbc a879 263c e18d 43bd 5514 693c
00000170: ba5d 923c 5914 2abd 5188 9839 7e89 bd3b
00000180: 9952 3d3d 2578 523d d51a 11bd 34b0 2b3c
00000190: c6bc 8c3b 6752 4cbd 5894 2f3d 859d 23bd
000001a0: 31c7 203c e059 81bd 9cb4 e6bc e2ab 0abb
000001b0: 23b1 a23b f35a 0ebd 202f 763d bf95 893c
000001c0: 00bf 9fbc d729 0cbd e331 4e3d c056 0bbb
000001d0: e8a0 1abd 3779 0fbd e099 be3b aa61 fcbb
000001e0: a1eb 2f3d 64d1 83bc ffac 3b3d bc21 2d3d
000001f0: b5f5 5dbc 0a28 8bbc ac86 81bc f823 fbbc
00000200: d457 8fbc 04fa 723c d561 dcbb d968 c1bc
00000210: edb6 7b3c 2bde 63bd 049c 423d 8345 85bd
00000220: 1de3 1d3d 69a1 913c 2e96 4bbd 01b9 053d
00000230: 0e8d 83bc 122d 4cbd bad5 65bd 60ad 173d
00000240: a6a6 92bc 204b 0bbc 9f98 613d b55e 10bc
00000250: 8dc4 be3b 8b6e 333d 920c d73b 1ba1 85bd
00000260: 1a3c ea3b 6f1e 2abc 153d 0a3d 4842 053d
00000270: 65dc 4fbd 9931 4c3c d16d 6fbc f733 c83b
00000280: 9438 f0bc 56d4 743d f5c9 94bd b13f ebbc
00000290: b7a7 f8bc 66df 22bd 35dc e83a 09dc 26bd
000002a0: bc16 67bd e5ea b13c a289 3f3d b616 653d
000002b0: 0976 133d 6f98 20bd 56f9 e23c 8a3d 153d
000002c0: fe27 223d bc09 6c3a 184a 54bd 1182 59bd
000002d0: ce4b 7abd 1678 80bc fa90 da3c 12d7 b4bc
000002e0: 481b 07bc b74c 383d 69be a1bc e7db 18bd
000002f0: 03ac e23c 3b8c 49bd 4e8c 3dbd 6eef 82bd
00000300: 83f0 563d 231f 22bd 8508 d73b 581b 573d
00000310: a64f 603d 7bcc 32bc 8686 49bd 39ef b03c
00000320: e76e 193d bea1 3fbd 9995 dfbc cddd 66bd
00000330: ae8b c93c 356e 663c 382b b33b 853d a8bb
00000340: 109e 59bd 3dee 8cbd bd3d 5bbd a10f 583a
00000350: 9926 043d 81e7 4cbc 661c 04bb 0cbc 1cbd
00000360: bb13 723c 37ea 3c3d 6147 b23c e988 3e3c
00000370: f737 2dbd 4806 ea3c 6890 8c3c 6ad4 8eba
00000380: 8add 17bd 0a63 2abd ff38 c3bc 61e9 89bd
00000390: eb7e f93c a18e 103d d999 3d3d 132b 83bc
000003a0: 3dc1 8abd d078 70bd 1c28 4e3c 2172 6e3b
000003b0: d6dd 5bbb e750 373d e821 873d 7c62 f339
000003c0: f645 1fbd 4980 bbbb 2cc4 56bc 1d7c 5cbd
000003d0: 62fe c9bc 09d0 04bc 2089 563d ffc1 e83c
000003e0: 3899 073d 8e0b c5bb 514d b63d 3dac 033e
000003f0: 6dc5 74be e1f5 f2bc c4eb c0bc 8df6 803d

conv2.bias f4 [20]
-0.013408069 0.049680132 0.04177563 -0.01614411 -0.002260572 -0.01969178 -0.06659019 0.07562495
0.010767672 -0.021121426 -0.025293922 0.04940555 -0.03573393 -0.030311301 -0.017319724 -0.06645915
-0.005303384 0.043835312 -0.005452306 -0.05511334
00000000: 84ad 5bbc 657d 4b3d ec1c 2b3d a740 84bc
00000010: 1b26 14bb a850 a1bc 7060 88bd 41e1 9a3d
00000020: e46a 303c d706 adbc 3335 cfbc 795d 4a3d
00000030: be5d 12bd 684f f8bc 18e2 8dbc bc1b 88bd
00000040: 02c8 adbb a88c 333d 42a9 b2bb 87be 61bd

fc.weight f4 [10, 20]
0.13288005 -0.06605707 -0.29944116 -0.49246317 0.19234072 -0.003544303 0.00013998836 -0.29511935
0.10780228 -0.8758658 -0.18407826 0.07152966 0.055232063 0.21005595 0.09921572 -0.14012787
-0.11950953 0.18713649 0.1941265 0.107966736 -0.16327529 0.13664745 0.14083451 0.08292023
-0.8144477 -0.22994427 -0.0019118389 0.0922198 0.09674335 0.077330485 -0.12787624 -0.0046164216
-0.012760137 -0.14253685 0.17743394 0.20336747 -0.015394101 0.052183706 0.09096971 0.12652232
-0.13458803 -0.3397519 -0.46916774 0.2898776 -0.25013068 0.086657144 0.029191338 0.121470846
0.1047272 -0.597228 -0.066661306 -0.29919457 -0.06743098 -0.15197717 0.13170566 -0.16675878
-0.029410483 -0.11721533 -0.035153165 0.13239609 -0.15452075 -0.38540027 0.28689566 0.044584814
-0.046258196 0.11359668 -0.062721044 -0.033261873 0.15989636 -0.08190707 -0.20693414 -0.20757952
-0.15116154 0.17864011 0.18783158 -0.0028374635 -0.11698084 -0.011711803 -0.083088405 -0.09975115
0.10794168 0.28285238 0.16441876 -0.48743436 -0.09259583 0.122060835 -0.05619836 -0.051094275
-0.15972662 -0.05270476 -0.061086074 0.27592108 -0.14947852 -0.16700844 -0.16718164 -0.184545
-0.058917664 -0.1902082 -0.034768857 0.043230448 -0.18696223 -0.13197716 -0.16756381 -0.27143124
0.17807378 -0.15115355 0.13277382 -0.612357 -0.15618066 -0.17370757 -0.14896365 0.21686912
-0.10455192 -0.18728201 0.10100624 -0.006792026 0.1715796 -0.08812635 -0.046855528 -0.103576384
-0.0089444835 -0.6019236 -0.15061845 -0.6172588 0.07137907 0.20577243 -0.13233973 -0.4931886
-0.10517941 0.3026766 -0.11666193 0.13269664 -0.12515013 -0.050121453 -0.08500649 -0.10727546
0.15414497 -0.06980633 -0.069995016 -0.09663224 -0.17830737 0.12126452 -0.10916575 0.027473168
-0.5022327 0.117101215 -0.084929295 0.23264211 -0.18958452 -0.21791862 0.13436809 0.070353925
0.17307809 0.044514053 -0.06597577 0.025987335 -0.0101459045 -0.037780374 -0.19540669 0.109016486
0.08901503 -0.31321844 -0.5070857 0.19786043 0.051602554 -0.1166662 0.12983605 -0.3596581
0.06134195 -0.41462207 -0.024496676 -0.31237346 -0.2398898 -0.004795831 -0.08824358 0.14335251
0.007815723 -0.08535424 -0.027542721 -0.072696455 0.09996144 -0.17223907 0.28732133 -0.35542044
0.15366329 0.09699721 0.09437171 -0.14350988 -0.18449605 -0.6225055 0.12261149 0.08546525
0.045405935 0.08637363 0.12903194 0.01241603 -0.012333526 0.054372333 -0.019268448 -0.22338581
00000000: b511 083e ee48 87bd 5a50 99be 2224 fcbe
00000010: f7f4 443e 8947 68bb d7c9 1239 e219 97be
00000020: 71c7 dc3d be38 60bf 037f 3cbe 247e 923d
00000030: 043b 623d e818 573e 9d31 cb3d ae7d 0fbe
00000040: 6ac1 f4bd b5a0 3f3e 19c9 463e aa1d dd3d
00000050: a331 27be 4fed 0b3e ec36 103e 15d2 a93d
00000060: a57f 50bf 8376 6bbe ab96 faba bcdd bc3d
00000070: 6121 c63d 725f 9e3d fdf1 02be 5a45 97bb
00000080: e50f 51bc 2ef5 11be 3eb1 353e 903f 503e
00000090: 8a37 7cbc 95be 553d 544e ba3d 118f 013e
000000a0: 72d1 09be f6f3 adbe c136 f0be d66a 943e
000000b0: 2111 80be 4d79 b13d ac22 ef3c b5c5 f83d
000000c0: 377b d63d efe3 18bf b985 88bd 0830 99be
000000d0: 4119 8abd e79f 1bbe d9dd 063e d0c2 2abe
000000e0: 41ee f0bc 970e f0bd c4fc 0fbd d792 073e
000000f0: b03a 1ebe 2f53 c5be fde3 923e 919e 363d
00000100: 3c79 3dbd 60a5 e83d e473 80bd 9a3d 08bd
00000110: dfbb 233e e5be a7bd 8be6 53be ba8f 54be
00000120: 17ca 1abe 6fed 363e ec56 403e bdf4 39bb
00000130: a793 efbd dde2 3fbc 412a aabd 554a ccbd
00000140: 8710 dd3d 07d2 903e 645d 283e ff90 f9be
00000150: e2a2 bdbd 08fb f93d 4030 66bd 3b48 51bd
00000160: 608f 23be f2e0 57bd 6435 7abd 8745 8d3e
00000170: e610 19be 4304 2bbe aa31 2bbe 5df9 3cbe
00000180: a653 71bd f0c5 42be ca69 0ebd 6912 313d
00000190: 0773 3fbe 0525 07be d995 2bbe 09f9 8abe
000001a0: f958 363e ffc7 1abe dcf5 073e 6ec3 1cbf
000001b0: d3ed 1fbe 66e0 31be ed89 18be f012 5e3e
000001c0: 511f d6bd dbc6 3fbe 5cdc ce3d a58f debb
000001d0: 90b2 2f3e 967b b4bd 95eb 3fbd db1f d4bd
000001e0: e28b 12bc aa17 1abf b93b 1abe ac04 1ebf
000001f0: 312f 923d 02b6 523e 1184 07be 3783 fcbe
00000200: 4d68 d7bd 6df8 9a3e 73ec eebd a1e1 073e
00000210: 5b27 00be 274c 4dbd e217 aebd 3db3 dbbd
00000220: 2ed8 1d3e 9ff6 8ebd 8c59 8fbd 20e7 c5bd
00000230: 3596 36be 8859 f83d 4b92 dfbd 690f e13c
00000240: 5292 00bf c3d2 ef3d 69ef adbd bc39 6e3e
00000250: 7222 42be 0f26 5fbe ca97 093e b815 903d
00000260: 623b 313e 5e54 363d 4e1e 87bd 64e3 d43c
00000270: 023b 26bc 98bf 1abd b118 48be 0944 df3d
00000280: 834d b63d 2b5e a0be 5ed0 01bf ed9b 4a3e
00000290: 335d 533d b0ee eebd bef3 043e 1b25 b8be
000002a0: b241 7b3d 5849 d4be 41ad c8bc 6aef 9fbe
000002b0: aca5 75be 5926 9dbb 0db9 b4bd 00cb 123e
000002c0: 850d 003c 34ce aebd 46a1 e1bc e1e1 94bd
000002d0: 95b8 cc3d 705f 30be c81b 933e abf9 b5be
000002e0: e959 1d3e 79a6 c63d f545 c13d 41f4 12be
000002f0: 88ec 3cbe 855c 1fbf bc1b fb3d 6808 af3d
00000300: 93fb 393d a8e4 b03d f320 043e 9b6c 4b3c
00000310: 8f12 4abc 86b5 5e3d ddd8 9dbc 40bf 64be

fc.bias f4 [10]
0.08331668 -0.044416204 -0.1317861 0.012087489 0.16071078 0.24955474 -0.21981327 -0.12252118
0.12615588 -0.07391304
00000000: efa1 aa3d c4ed 35bd eff2 06be 9a0a 463c
00000010: 5e91 243e 478b 7f3e bb16 61be 62ec fabd
00000020: 022f 013e b85f 97bd
